nbs/cpu.pt (torch, 995256 bytes, 18 tensors)

weight_ih_l0 f4 [300, 3]
0	0xbdadb662	-0.084820524
1	0x3ce5feb3	0.028075552
2	0xbd0d5dec	-0.0345134
3	0x3dcf50f4	0.101228625
4	0x3d5a6ff8	0.053329438
5	0x3c4e6191	0.012596504
6	0xbdb984fd	-0.090585686
7	0x3d780a16	0.060556494
8	0xbdd7ef34	-0.10543671
9	0x3b976195	0.004619787
10	0xbd8ec52c	-0.06971201
11	0x3d8fcb81	0.07021237
12	0xbc9d3a73	-0.01919291
13	0x3de34415	0.1109697
14	0x3da2011d	0.079103686
15	0x3dcafec2	0.099118724
16	0xbc637f1f	-0.0138852885
17	0x3df46caa	0.119347885
18	0xbe0c1b0d	-0.13682194
19	0xbdb2c36b	-0.08728679
20	0xbc54c319	-0.012985968
21	0x3da55b42	0.08074047
22	0x3d99c189	0.07507617
23	0x3d0a5ef6	0.033781968
24	0x3d56ffef	0.05249017
25	0xbce5fc59	-0.02807443
26	0x3db627f3	0.088943385
27	0xbc39768b	-0.011319767
28	0xbd37c9a1	-0.044870023
29	0xbe2ae794	-0.16689903
30	0xbd185355	-0.037188847
31	0x3dbb1dc5	0.091365375
32	0x3c06f0f1	0.008236156
33	0x3b0a0e34	0.0021065595
34	0xbd8223c8	-0.06354481
35	0xbd4ad60c	-0.049520537
36	0x3cb74067	0.022369577
37	0x3dd68914	0.10475364
38	0x3dd5de95	0.10442845
39	0x3bb19453	0.005419293
40	0x3cb25430	0.02176866
41	0x3cb78eb7	0.022406919
42	0x3da5e863	0.08100965
43	0x3c14a04f	0.009071424
44	0x3dabbf96	0.083861515
45	0xbbdc831d	-0.006729497
46	0xbc90698e	-0.017628457
47	0xbdd9fc5e	-0.10643838
48	0xbdeca396	-0.11554639
49	0x3d2faac5	0.042887468
50	0xbd97f6d0	-0.074201226
51	0x3dc7905a	0.0974433
52	0x3dd90324	0.10596302
53	0x3d565427	0.052326348
54	0x3dbc5a35	0.09196893
55	0x3e13e668	0.14443362
56	0xbe1a23ed	-0.15052767
57	0x3d06f988	0.032952815
58	0xbc59296b	-0.013254504
59	0xbc3fcbfb	-0.011706348
60	0x3d35c8e4	0.044381037
61	0x3dffd66e	0.12492071
62	0xbdb74fef	-0.08950793
63	0x3da6641e	0.081245646
64	0xbda8b1d3	-0.08237042
65	0x3d9f9c1b	0.07793447
66	0x3d22a706	0.039710067
67	0x3ccdeb83	0.025136715
68	0xbd917e5b	-0.071041785
69	0x3d66c073	0.056335878
70	0x3d6fca21	0.058542375
71	0xbd991540	-0.07474756
72	0xbdd956a2	-0.10612227
73	0x3d9f6cea	0.077844456
74	0xbd868c99	-0.065697856
75	0xbc5640f7	-0.013077012
76	0x3c5234ad	0.012829942
77	0xbd562ae1	-0.052286986
78	0x3d1e3a10	0.03862959
79	0x3da14222	0.07873942
80	0x3d3cb3da	0.046069957
81	0xbd55289f	-0.052040692
82	0x3e06349f	0.13106011
83	0x3d95a727	0.073072724
84	0xbd30fc6f	-0.04320949
85	0x3d382c16	0.04496392
86	0xbcb4a417	-0.0220509
87	0xbc99d627	-0.018778874
88	0xbc6ebbb8	-0.014571123
89	0xbbe2552f	-0.0069071273
90	0x3d40f9e5	0.047113318
91	0xbc243eb3	-0.010024714
92	0xbcd30137	-0.025757415
93	0xbe227020	-0.15863085
94	0x3d6dc640	0.058050394
95	0x3d8aaded	0.06771455
96	0x3e0f7024	0.14007622
97	0xbc9af23c	-0.018914334
98	0x3c55723d	0.013027725
99	0x3c88eb6a	0.016713817
100	0xbcaa1439	-0.020761596
101	0x3e066928	0.13126051
102	0xbe279eca	-0.16369167
103	0x3e2b03e1	0.16700698
104	0x3d6ee94f	0.05832797
105	0xbd249759	-0.0401834
106	0x3e0d988d	0.13827725
107	0xbd465191	-0.04841763
108	0x3d110009	0.035400424
109	0x3dd85125	0.10562352
110	0xbdad709a	-0.08468743
111	0x3d835cce	0.064141855
112	0x3d83f326	0.06442861
113	0xbd86c664	-0.06580809
114	0xbd187849	-0.037224088
115	0xbdb70e2b	-0.08938249
116	0xbe0af7cf	-0.13571094
117	0xbdc1032d	-0.09424434
118	0x3dca758d	0.09885702
119	0x3b890d35	0.0041824826
120	0xbe0b2d81	-0.13591577
121	0x3a41f6b4	0.00073991274
122	0x3d9ca0cd	0.07647858
123	0xbe06622c	-0.13123387
124	0x3cc0548c	0.023477815
125	0x3e19ac40	0.15007114
126	0x3e052225	0.13001306
127	0x3decc7c1	0.115615375
128	0xbdd8a73a	-0.10578771
129	0x3d281abd	0.041041125
130	0x3db89822	0.09013392
131	0xbdea3742	-0.11436321
132	0x3d759899	0.05995998
133	0xbd0b7970	-0.03405136
134	0x3d42d674	0.0475678
135	0x3da2cf78	0.07949728
136	0xbbc42e5b	-0.0059869713
137	0x3d8f3e8c	0.06994352
138	0xbda71677	-0.08158582
139	0x3d215dfe	0.03939628
140	0xbe3c8b10	-0.18412423
141	0x3def353f	0.11680078
142	0xbd4d8ef4	-0.05018516
143	0xbd99a222	-0.075016275
144	0xbc03a645	-0.008035247
145	0xbd19351b	-0.03740416
146	0x3d3b7561	0.045766238
147	0x3c229afc	0.0099246465
148	0x3dd8ad2b	0.10579904
149	0x3d3c7e70	0.046019018
150	0xbb30b4c9	-0.0026963225
151	0x3d59765a	0.053091384
152	0x3ca03430	0.019556135
153	0x3d90da40	0.07072878
154	0xbdb2f87b	-0.087388
155	0xbe1f829c	-0.15577167
156	0x3d58f20b	0.052965205
157	0x3e3d4517	0.18483387
158	0x3d94c23c	0.0726361
159	0xbd2a529b	-0.041582685
160	0x3bf76ca5	0.0075507932
161	0x3dc1537b	0.09439751
162	0x3d27702b	0.040878456
163	0x3d7f1db4	0.062284186
164	0xbceb3ae3	-0.028714603
165	0x3d8f5ade	0.069997534
166	0x3d525821	0.051353578
167	0xbd0dae53	-0.034590077
168	0xbde4a0d8	-0.11163491
169	0x3d1fa9fb	0.038980465
170	0xbbf0939f	-0.0073418166
171	0xbc86a6b1	-0.016436907
172	0x38fd932a	0.000120913915
173	0xbd0d88e8	-0.034554392
174	0xbc65142e	-0.013981862
175	0x3e04ed7f	0.12981223
176	0xbce54a0d	-0.027989412
177	0xbdab2237	-0.08356135
178	0x3b96ed8d	0.004605955
179	0x3e040776	0.12893471
180	0x3daff1df	0.08591055
181	0x3d2f4afd	0.042796124
182	0x3d682ae3	0.056681525
183	0x3d3576bb	0.044302683
184	0x3ca4f17e	0.020134684
185	0xbdc9a564	-0.09845999
186	0x3d136b4f	0.03599101
187	0x3d7cc583	0.0617118
188	0x3dfdbe4e	0.12389813
189	0xbd132916	-0.035927854
190	0xbda58083	-0.08081152
191	0x3d05d548	0.032674104
192	0x39e72604	0.00044088077
193	0x3d7e216b	0.06204359
194	0xbe73e030	-0.2381599
195	0xbda720db	-0.081605636
196	0x3d91e813	0.07124343
197	0x3e0822f9	0.13294591
198	0xbcd5a5e2	-0.026080076
199	0x3d7fbbb3	0.062434863
200	0xbe0a3738	-0.13497627
201	0x3c9d076d	0.01916858
202	0xbd612a12	-0.054971762
203	0x3d68a462	0.056797393
204	0x3ca47cfc	0.020079128
205	0xbd92005a	-0.07128973
206	0xbd0a42c7	-0.03375509
207	0xbdded30d	-0.108800985
208	0xbd15376a	-0.0364298
209	0x3cf48efb	0.029853335
210	0xbe0064eb	-0.12538497
211	0x3e07bdfa	0.13256064
212	0xbdd3301d	-0.10311911
213	0xbe1525d5	-0.14565213
214	0x3b0534de	0.00203257
215	0x3d383fab	0.044982594
216	0x3c9671f8	0.018364891
217	0x3e236286	0.15955552
218	0x3b93a52b	0.0045057735
219	0x3b4d274e	0.0031303945
220	0x3e1e0554	0.1543172
221	0x3c5adb3b	0.013357933
222	0xbd87b2fa	-0.06625934
223	0xbdae9e2b	-0.08526262
224	0x3d26f5ec	0.040761873
225	0x3d8364e7	0.0641573
226	0xbd47059e	-0.04858934
227	0xbdbc2568	-0.09186822
228	0x3cfd86ae	0.03094801
229	0x3cc1ff4b	0.023681303
230	0xbd4d8b62	-0.050181754
231	0x3e0ab6d3	0.13546304
232	0x3ce598e5	0.028027007
233	0xbd93ab81	-0.07210446
234	0x3d95995c	0.073046416
235	0x3d778b1c	0.0604354
236	0x3d48e0ac	0.04904239
237	0xbcb4ff2f	-0.022094337
238	0xbc03508d	-0.00801481
239	0x3db6d6b1	0.08927668
240	0x3d40436e	0.046939306
241	0xbc6b1d00	-0.014350176
242	0x3e24e396	0.16102442
243	0x3cc060e3	0.0234837
244	0xbd07997b	-0.033105355
245	0x3d4c3be6	0.04986181
246	0x3c40119e	0.01172295
247	0xbc1b2a01	-0.009470464
248	0x3e522bc1	0.20524503
249	0xbd450c91	-0.048107687
250	0xbcb13893	-0.021633422
251	0x3ced5143	0.028969413
252	0xbcfcf107	-0.03087665
253	0xbca98d42	-0.02069724
254	0x3caa38be	0.02077901
255	0x3d77c3ba	0.060489394

weight_hh_l0 f4 [300, 100]
0	0xbcc54d00	-0.024084568
1	0xbd729e5b	-0.05923305
2	0xbdce460b	-0.100719534
3	0xbcfbf714	-0.030757464
4	0x3d0bb18a	0.03410486
5	0x3d07d9b8	0.033166617
6	0x3b885ed8	0.004161697
7	0x3cf2a4a3	0.02961952
8	0xbdafd286	-0.08585076
9	0xbd6a7c0a	-0.0572472
10	0x3ca317c2	0.01990879
11	0x3ca5f801	0.020259859
12	0xbda77d38	-0.081781805
13	0xbd2ec317	-0.04266652
14	0x3dce15a7	0.100627236
15	0x3ce29f84	0.027663954
16	0x3ce4d0da	0.02793162
17	0xbd30f08f	-0.043198165
18	0x3d4a4ebe	0.0493915
19	0x3d06f08e	0.032944255
20	0x3dd53b3c	0.10411689
21	0xbb3d9680	-0.0028928816
22	0xba86bf40	-0.0010280386
23	0xbd429912	-0.04750926
24	0xbc4297d0	-0.011877015
25	0xbcd8c79e	-0.026462372
26	0x3b241d60	0.0025041923
27	0xbc785f60	-0.015159458
28	0xbd3d1e1a	-0.046171285
29	0xbc8166aa	-0.015796024
30	0xbca355c5	-0.019938359
31	0xbd028b82	-0.031871326
32	0x3d7ac27b	0.061220627
33	0x3adbbb7d	0.001676425
34	0xbe0e9a83	-0.13926129
35	0x3d9c1403	0.076210044
36	0x3daeaa12	0.08528532
37	0xbd941797	-0.07231062
38	0x3d9cc0c3	0.07653954
39	0xbdf0d87f	-0.11760043
40	0x3df6405b	0.120239936
41	0xbc8bb9d1	-0.017056378
42	0x3c2dec08	0.010615356
43	0x3c31196c	0.010809284
44	0xbd9d8bcb	-0.07692679
45	0x3e00f215	0.12592347
46	0xbd934d4b	-0.07192477
47	0x3dd90515	0.105966724
48	0xbd2f3756	-0.04277738
49	0xbd53e6b5	-0.05173369
50	0xbbe04d10	-0.006845124
51	0xbb4919c8	-0.0030685533
52	0x3d48d5ea	0.04903213
53	0x3dc02270	0.093815684
54	0x3d256445	0.040378828
55	0xbcb63611	-0.022242578
56	0x3da46ee3	0.080289625
57	0xbce2f53a	-0.027704824
58	0x3d4ba16c	0.04971449
59	0xbbc292ea	-0.0059379237
60	0x3c4663a2	0.012108715
61	0x3d9d1006	0.07669072
62	0x3c8e23f0	0.01735112
63	0xbcc4669c	-0.02397471
64	0x3d48d648	0.04903248
65	0xbdfba4e6	-0.12287311
66	0x3cab953e	0.020945188
67	0x3d13616f	0.03598159
68	0x3de1d674	0.11027232
69	0xbbf5c5e5	-0.0075003975
70	0x3b9a174b	0.004702484
71	0xbc65d459	-0.014027678
72	0x3d1abbe0	0.037776828
73	0x3d263124	0.040574208
74	0x3c6a2382	0.014290692
75	0x3bf3fef7	0.0074461657
76	0x3d4f0e03	0.050550472
77	0xbd7fe891	-0.062477652
78	0xbd4df928	-0.050286442
79	0xbdba5070	-0.090973735
80	0x3db4b36d	0.08823285
81	0xbc04ef81	-0.008113743
82	0x3d57af58	0.052657455
83	0x3c8858e2	0.016643945
84	0x3dc76120	0.09735322
85	0xbd2bab9b	-0.041911703
86	0x3d2a2511	0.041539256
87	0xbde41299	-0.1113636
88	0xbd65944e	-0.056049637
89	0xbd9d1f15	-0.07671944
90	0xbdc5da5d	-0.0966079
91	0xbccd663a	-0.02507316
92	0xbc9233e2	-0.017847005
93	0xbd0638b2	-0.032768913
94	0x3d94f372	0.07272996
95	0x3b88fb58	0.004180353
96	0xbd43203f	-0.047638174
97	0x3d6d7ce4	0.057980433
98	0x3dc99f6f	0.09844863
99	0x3d3199bc	0.043359503
100	0x3dd5eeb8	0.104459226
101	0x3d0e6de0	0.034772754
102	0x3d43e5e0	0.047826648
103	0xbbe9b09f	-0.0071316506
104	0xbc219ca8	-0.00986401
105	0xbe07299b	-0.13199465
106	0x3d6050d8	0.0547646
107	0x3c7472e4	0.01491997
108	0xbd1b0708	-0.037848502
109	0xbcfbaeee	-0.030723061
110	0x3a4f83e0	0.0007916074
111	0x3c97aecc	0.018515967
112	0x3cbd1c1b	0.02308469
113	0x3d940325	0.07227162
114	0x3cf7fa14	0.030270614
115	0xbdd8a732	-0.10578765
116	0x3c9b2b1f	0.01894146
117	0xbce55ac4	-0.027997382
118	0xbd203346	-0.0391114
119	0x3d0b486c	0.034004614
120	0x3c83ea44	0.016102917
121	0xbc5f0173	-0.013611185
122	0x3dbeac20	0.09310174
123	0xbb274134	-0.0025521042
124	0x3df5a033	0.11993446
125	0x3dbf12e5	0.09329776
126	0xbdd7ebd9	-0.10543031
127	0x3c748a02	0.014925482
128	0xbb1869d8	-0.0023256447
129	0xbd63747c	-0.05553101
130	0xbc008fae	-0.007846756
131	0xbc781d5a	-0.015143717
132	0x3bd513ae	0.00650259
133	0xbd5161ee	-0.051118784
134	0xbccac49c	-0.024751954
135	0x3d4b23a1	0.049594525
136	0xbd0f9d53	-0.035062145
137	0xbd7887aa	-0.060676254
138	0xbdc9556c	-0.09830746
139	0xbd67b9bb	-0.05657361
140	0xbd5676f2	-0.05235953
141	0xbd3696f6	-0.04457756
142	0xbd81455d	-0.06312058
143	0xbcfa0389	-0.030519264
144	0x3cc1a7c7	0.023639573
145	0x3da6aeb8	0.08138794
146	0x3c0562ad	0.008141202
147	0xbc7e88b8	-0.015535526
148	0xbd7f6060	-0.06234777
149	0xbdad7d6d	-0.08471189
150	0x3bdd91cd	0.0067617656
151	0xbc3e9a87	-0.011633522
152	0x3da4520f	0.08023464
153	0xbb9fecbf	-0.0048805173
154	0x3d6e1aa8	0.05813089
155	0xbc016516	-0.007897636
156	0x3cc3d2b6	0.023904186
157	0x3dc1a386	0.09455018
158	0x3a7e1150	0.0009691911
159	0x3cbe92b1	0.023263307
160	0x3cbc2574	0.022967078
161	0x3e017749	0.1264316
162	0x3c80570c	0.015666507
163	0xbb9a2d03	-0.004705073
164	0x3beb3c39	0.00717881
165	0x3d574947	0.052560117
166	0xbd199892	-0.037499018
167	0x3d5ad27e	0.053423397
168	0xbdaed1cd	-0.0853611
169	0x3d42f1f6	0.047594033
170	0x3d0ed6c1	0.034872774
171	0x3d01ae7c	0.031660542
172	0xbdd63906	-0.10460095
173	0xbc5f1fe0	-0.013618439
174	0xbc2acd25	-0.010424887
175	0xbd5d8e39	-0.054090712
176	0x3d7a88a7	0.061165478
177	0x3dbcb089	0.09213359
178	0xbd834fa4	-0.064116746
179	0xbd986570	-0.07441223
180	0xbdb2f978	-0.08738989
181	0x3d856712	0.065138
182	0xbd7774f6	-0.060414277
183	0x3d042e9c	0.032271013
184	0x3d977d22	0.07396914
185	0xbd470614	-0.04858978
186	0x3d49fe2e	0.04931467
187	0xbd00cda8	-0.03144613
188	0xbda70e29	-0.08156998
189	0x3c89d80d	0.016826654
190	0xbbf77030	-0.0075512156
191	0xbcffede7	-0.03124137
192	0x3d409485	0.04701664
193	0x3c76d993	0.015066522
194	0x3d15e5bd	0.03659605
195	0x3b666a0c	0.0035158424
196	0xbc0f9739	-0.008764082
197	0xbd2d257a	-0.04227207
198	0x3db51a45	0.08842901
199	0xbb6650dd	-0.0035143413
200	0x3c0a7d3c	0.00845271
201	0xbd83c2c3	-0.06433632
202	0xbc2f4400	-0.010697365
203	0xbcf685f9	-0.03009318
204	0x3cc3232b	0.02382048
205	0x3ce6ceb6	0.02817474
206	0xbd9f1392	-0.077674046
207	0x3c83f201	0.016106607
208	0xbc8393d0	-0.016061693
209	0xbd20546b	-0.039143007
210	0xbd0de0a4	-0.034638062
211	0x3c059a91	0.008154527
212	0xbc9a9418	-0.018869445
213	0xbd586590	-0.052831233
214	0xbd3b3f45	-0.045714635
215	0x3da443bd	0.080207326
216	0x3cf694df	0.030100284
217	0x3c8f53e2	0.017496053
218	0x3d909993	0.07060542
219	0xbd11680b	-0.035499614
220	0x3ca72302	0.020402435
221	0xbb8301f1	-0.003998034
222	0xbd86b7c4	-0.06578019
223	0x3d1eddb3	0.038785648
224	0xbd0a3317	-0.03374013
225	0x3daa7435	0.08322946
226	0xbdcc4e49	-0.09975869
227	0xbbee7371	-0.0072769453
228	0x3d16a253	0.0367759
229	0x3d53b772	0.05168862
230	0x3dae01d0	0.084964395
231	0xbce3478d	-0.027744079
232	0x3dbad58c	0.09122762
233	0xbc5159ae	-0.012777729
234	0x3c935637	0.017985446
235	0x3853cc80	5.0496776e-05
236	0x3ac9cc09	0.001539589
237	0x3d4d83e6	0.050174616
238	0xbc746b4c	-0.01491816
239	0x3d279a7f	0.040918823
240	0x3d153537	0.036427703
241	0xbbfff43a	-0.0078110965
242	0xbd5e23b5	-0.05423327
243	0x3d39e42b	0.045383614
244	0x3d623b4d	0.055232335
245	0x3d8283af	0.06372773
246	0x3d16821b	0.036745172
247	0xbb591312	-0.003312294
248	0xbd852ada	-0.06502314
249	0xbd3e768d	-0.046499778
250	0xba2953ea	-0.00064593425
251	0x3b9802d8	0.004639011
252	0x3d957a38	0.07298702
253	0x3d0c2266	0.034212492
254	0x3d0e03de	0.034671657
255	0xbc2cf551	-0.010556535

bias_ih_l0 f4 [300]
0	0x00000000	0.0
1	0x00000000	0.0
2	0x00000000	0.0
3	0x00000000	0.0
4	0x00000000	0.0
5	0x00000000	0.0
6	0x00000000	0.0
7	0x00000000	0.0
8	0x00000000	0.0
9	0x00000000	0.0
10	0x00000000	0.0
11	0x00000000	0.0
12	0x00000000	0.0
13	0x00000000	0.0
14	0x00000000	0.0
15	0x00000000	0.0
16	0x00000000	0.0
17	0x00000000	0.0
18	0x00000000	0.0
19	0x00000000	0.0
20	0x00000000	0.0
21	0x00000000	0.0
22	0x00000000	0.0
23	0x00000000	0.0
24	0x00000000	0.0
25	0x00000000	0.0
26	0x00000000	0.0
27	0x00000000	0.0
28	0x00000000	0.0
29	0x00000000	0.0
30	0x00000000	0.0
31	0x00000000	0.0
32	0x00000000	0.0
33	0x00000000	0.0
34	0x00000000	0.0
35	0x00000000	0.0
36	0x00000000	0.0
37	0x00000000	0.0
38	0x00000000	0.0
39	0x00000000	0.0
40	0x00000000	0.0
41	0x00000000	0.0
42	0x00000000	0.0
43	0x00000000	0.0
44	0x00000000	0.0
45	0x00000000	0.0
46	0x00000000	0.0
47	0x00000000	0.0
48	0x00000000	0.0
49	0x00000000	0.0
50	0x00000000	0.0
51	0x00000000	0.0
52	0x00000000	0.0
53	0x00000000	0.0
54	0x00000000	0.0
55	0x00000000	0.0
56	0x00000000	0.0
57	0x00000000	0.0
58	0x00000000	0.0
59	0x00000000	0.0
60	0x00000000	0.0
61	0x00000000	0.0
62	0x00000000	0.0
63	0x00000000	0.0
64	0x00000000	0.0
65	0x00000000	0.0
66	0x00000000	0.0
67	0x00000000	0.0
68	0x00000000	0.0
69	0x00000000	0.0
70	0x00000000	0.0
71	0x00000000	0.0
72	0x00000000	0.0
73	0x00000000	0.0
74	0x00000000	0.0
75	0x3f800000	1.0
76	0x3f800000	1.0
77	0x3f800000	1.0
78	0x3f800000	1.0
79	0x3f800000	1.0
80	0x3f800000	1.0
81	0x3f800000	1.0
82	0x3f800000	1.0
83	0x3f800000	1.0
84	0x3f800000	1.0
85	0x3f800000	1.0
86	0x3f800000	1.0
87	0x3f800000	1.0
88	0x3f800000	1.0
89	0x3f800000	1.0
90	0x3f800000	1.0
91	0x3f800000	1.0
92	0x3f800000	1.0
93	0x3f800000	1.0
94	0x3f800000	1.0
95	0x3f800000	1.0
96	0x3f800000	1.0
97	0x3f800000	1.0
98	0x3f800000	1.0
99	0x3f800000	1.0
100	0x3f800000	1.0
101	0x3f800000	1.0
102	0x3f800000	1.0
103	0x3f800000	1.0
104	0x3f800000	1.0
105	0x3f800000	1.0
106	0x3f800000	1.0
107	0x3f800000	1.0
108	0x3f800000	1.0
109	0x3f800000	1.0
110	0x3f800000	1.0
111	0x3f800000	1.0
112	0x3f800000	1.0
113	0x3f800000	1.0
114	0x3f800000	1.0
115	0x3f800000	1.0
116	0x3f800000	1.0
117	0x3f800000	1.0
118	0x3f800000	1.0
119	0x3f800000	1.0
120	0x3f800000	1.0
121	0x3f800000	1.0
122	0x3f800000	1.0
123	0x3f800000	1.0
124	0x3f800000	1.0
125	0x3f800000	1.0
126	0x3f800000	1.0
127	0x3f800000	1.0
128	0x3f800000	1.0
129	0x3f800000	1.0
130	0x3f800000	1.0
131	0x3f800000	1.0
132	0x3f800000	1.0
133	0x3f800000	1.0
134	0x3f800000	1.0
135	0x3f800000	1.0
136	0x3f800000	1.0
137	0x3f800000	1.0
138	0x3f800000	1.0
139	0x3f800000	1.0
140	0x3f800000	1.0
141	0x3f800000	1.0
142	0x3f800000	1.0
143	0x3f800000	1.0
144	0x3f800000	1.0
145	0x3f800000	1.0
146	0x3f800000	1.0
147	0x3f800000	1.0
148	0x3f800000	1.0
149	0x3f800000	1.0
150	0x00000000	0.0
151	0x00000000	0.0
152	0x00000000	0.0
153	0x00000000	0.0
154	0x00000000	0.0
155	0x00000000	0.0
156	0x00000000	0.0
157	0x00000000	0.0
158	0x00000000	0.0
159	0x00000000	0.0
160	0x00000000	0.0
161	0x00000000	0.0
162	0x00000000	0.0
163	0x00000000	0.0
164	0x00000000	0.0
165	0x00000000	0.0
166	0x00000000	0.0
167	0x00000000	0.0
168	0x00000000	0.0
169	0x00000000	0.0
170	0x00000000	0.0
171	0x00000000	0.0
172	0x00000000	0.0
173	0x00000000	0.0
174	0x00000000	0.0
175	0x00000000	0.0
176	0x00000000	0.0
177	0x00000000	0.0
178	0x00000000	0.0
179	0x00000000	0.0
180	0x00000000	0.0
181	0x00000000	0.0
182	0x00000000	0.0
183	0x00000000	0.0
184	0x00000000	0.0
185	0x00000000	0.0
186	0x00000000	0.0
187	0x00000000	0.0
188	0x00000000	0.0
189	0x00000000	0.0
190	0x00000000	0.0
191	0x00000000	0.0
192	0x00000000	0.0
193	0x00000000	0.0
194	0x00000000	0.0
195	0x00000000	0.0
196	0x00000000	0.0
197	0x00000000	0.0
198	0x00000000	0.0
199	0x00000000	0.0
200	0x00000000	0.0
201	0x00000000	0.0
202	0x00000000	0.0
203	0x00000000	0.0
204	0x00000000	0.0
205	0x00000000	0.0
206	0x00000000	0.0
207	0x00000000	0.0
208	0x00000000	0.0
209	0x00000000	0.0
210	0x00000000	0.0
211	0x00000000	0.0
212	0x00000000	0.0
213	0x00000000	0.0
214	0x00000000	0.0
215	0x00000000	0.0
216	0x00000000	0.0
217	0x00000000	0.0
218	0x00000000	0.0
219	0x00000000	0.0
220	0x00000000	0.0
221	0x00000000	0.0
222	0x00000000	0.0
223	0x00000000	0.0
224	0x00000000	0.0
225	0x00000000	0.0
226	0x00000000	0.0
227	0x00000000	0.0
228	0x00000000	0.0
229	0x00000000	0.0
230	0x00000000	0.0
231	0x00000000	0.0
232	0x00000000	0.0
233	0x00000000	0.0
234	0x00000000	0.0
235	0x00000000	0.0
236	0x00000000	0.0
237	0x00000000	0.0
238	0x00000000	0.0
239	0x00000000	0.0
240	0x00000000	0.0
241	0x00000000	0.0
242	0x00000000	0.0
243	0x00000000	0.0
244	0x00000000	0.0
245	0x00000000	0.0
246	0x00000000	0.0
247	0x00000000	0.0
248	0x00000000	0.0
249	0x00000000	0.0
250	0x00000000	0.0
251	0x00000000	0.0
252	0x00000000	0.0
253	0x00000000	0.0
254	0x00000000	0.0
255	0x00000000	0.0

bias_hh_l0 f4 [300]
0	0x00000000	0.0
1	0x00000000	0.0
2	0x00000000	0.0
3	0x00000000	0.0
4	0x00000000	0.0
5	0x00000000	0.0
6	0x00000000	0.0
7	0x00000000	0.0
8	0x00000000	0.0
9	0x00000000	0.0
10	0x00000000	0.0
11	0x00000000	0.0
12	0x00000000	0.0
13	0x00000000	0.0
14	0x00000000	0.0
15	0x00000000	0.0
16	0x00000000	0.0
17	0x00000000	0.0
18	0x00000000	0.0
19	0x00000000	0.0
20	0x00000000	0.0
21	0x00000000	0.0
22	0x00000000	0.0
23	0x00000000	0.0
24	0x00000000	0.0
25	0x00000000	0.0
26	0x00000000	0.0
27	0x00000000	0.0
28	0x00000000	0.0
29	0x00000000	0.0
30	0x00000000	0.0
31	0x00000000	0.0
32	0x00000000	0.0
33	0x00000000	0.0
34	0x00000000	0.0
35	0x00000000	0.0
36	0x00000000	0.0
37	0x00000000	0.0
38	0x00000000	0.0
39	0x00000000	0.0
40	0x00000000	0.0
41	0x00000000	0.0
42	0x00000000	0.0
43	0x00000000	0.0
44	0x00000000	0.0
45	0x00000000	0.0
46	0x00000000	0.0
47	0x00000000	0.0
48	0x00000000	0.0
49	0x00000000	0.0
50	0x00000000	0.0
51	0x00000000	0.0
52	0x00000000	0.0
53	0x00000000	0.0
54	0x00000000	0.0
55	0x00000000	0.0
56	0x00000000	0.0
57	0x00000000	0.0
58	0x00000000	0.0
59	0x00000000	0.0
60	0x00000000	0.0
61	0x00000000	0.0
62	0x00000000	0.0
63	0x00000000	0.0
64	0x00000000	0.0
65	0x00000000	0.0
66	0x00000000	0.0
67	0x00000000	0.0
68	0x00000000	0.0
69	0x00000000	0.0
70	0x00000000	0.0
71	0x00000000	0.0
72	0x00000000	0.0
73	0x00000000	0.0
74	0x00000000	0.0
75	0x00000000	0.0
76	0x00000000	0.0
77	0x00000000	0.0
78	0x00000000	0.0
79	0x00000000	0.0
80	0x00000000	0.0
81	0x00000000	0.0
82	0x00000000	0.0
83	0x00000000	0.0
84	0x00000000	0.0
85	0x00000000	0.0
86	0x00000000	0.0
87	0x00000000	0.0
88	0x00000000	0.0
89	0x00000000	0.0
90	0x00000000	0.0
91	0x00000000	0.0
92	0x00000000	0.0
93	0x00000000	0.0
94	0x00000000	0.0
95	0x00000000	0.0
96	0x00000000	0.0
97	0x00000000	0.0
98	0x00000000	0.0
99	0x00000000	0.0
100	0x00000000	0.0
101	0x00000000	0.0
102	0x00000000	0.0
103	0x00000000	0.0
104	0x00000000	0.0
105	0x00000000	0.0
106	0x00000000	0.0
107	0x00000000	0.0
108	0x00000000	0.0
109	0x00000000	0.0
110	0x00000000	0.0
111	0x00000000	0.0
112	0x00000000	0.0
113	0x00000000	0.0
114	0x00000000	0.0
115	0x00000000	0.0
116	0x00000000	0.0
117	0x00000000	0.0
118	0x00000000	0.0
119	0x00000000	0.0
120	0x00000000	0.0
121	0x00000000	0.0
122	0x00000000	0.0
123	0x00000000	0.0
124	0x00000000	0.0
125	0x00000000	0.0
126	0x00000000	0.0
127	0x00000000	0.0
128	0x00000000	0.0
129	0x00000000	0.0
130	0x00000000	0.0
131	0x00000000	0.0
132	0x00000000	0.0
133	0x00000000	0.0
134	0x00000000	0.0
135	0x00000000	0.0
136	0x00000000	0.0
137	0x00000000	0.0
138	0x00000000	0.0
139	0x00000000	0.0
140	0x00000000	0.0
141	0x00000000	0.0
142	0x00000000	0.0
143	0x00000000	0.0
144	0x00000000	0.0
145	0x00000000	0.0
146	0x00000000	0.0
147	0x00000000	0.0
148	0x00000000	0.0
149	0x00000000	0.0
150	0x00000000	0.0
151	0x00000000	0.0
152	0x00000000	0.0
153	0x00000000	0.0
154	0x00000000	0.0
155	0x00000000	0.0
156	0x00000000	0.0
157	0x00000000	0.0
158	0x00000000	0.0
159	0x00000000	0.0
160	0x00000000	0.0
161	0x00000000	0.0
162	0x00000000	0.0
163	0x00000000	0.0
164	0x00000000	0.0
165	0x00000000	0.0
166	0x00000000	0.0
167	0x00000000	0.0
168	0x00000000	0.0
169	0x00000000	0.0
170	0x00000000	0.0
171	0x00000000	0.0
172	0x00000000	0.0
173	0x00000000	0.0
174	0x00000000	0.0
175	0x00000000	0.0
176	0x00000000	0.0
177	0x00000000	0.0
178	0x00000000	0.0
179	0x00000000	0.0
180	0x00000000	0.0
181	0x00000000	0.0
182	0x00000000	0.0
183	0x00000000	0.0
184	0x00000000	0.0
185	0x00000000	0.0
186	0x00000000	0.0
187	0x00000000	0.0
188	0x00000000	0.0
189	0x00000000	0.0
190	0x00000000	0.0
191	0x00000000	0.0
192	0x00000000	0.0
193	0x00000000	0.0
194	0x00000000	0.0
195	0x00000000	0.0
196	0x00000000	0.0
197	0x00000000	0.0
198	0x00000000	0.0
199	0x00000000	0.0
200	0x00000000	0.0
201	0x00000000	0.0
202	0x00000000	0.0
203	0x00000000	0.0
204	0x00000000	0.0
205	0x00000000	0.0
206	0x00000000	0.0
207	0x00000000	0.0
208	0x00000000	0.0
209	0x00000000	0.0
210	0x00000000	0.0
211	0x00000000	0.0
212	0x00000000	0.0
213	0x00000000	0.0
214	0x00000000	0.0
215	0x00000000	0.0
216	0x00000000	0.0
217	0x00000000	0.0
218	0x00000000	0.0
219	0x00000000	0.0
220	0x00000000	0.0
221	0x00000000	0.0
222	0x00000000	0.0
223	0x00000000	0.0
224	0x00000000	0.0
225	0x00000000	0.0
226	0x00000000	0.0
227	0x00000000	0.0
228	0x00000000	0.0
229	0x00000000	0.0
230	0x00000000	0.0
231	0x00000000	0.0
232	0x00000000	0.0
233	0x00000000	0.0
234	0x00000000	0.0
235	0x00000000	0.0
236	0x00000000	0.0
237	0x00000000	0.0
238	0x00000000	0.0
239	0x00000000	0.0
240	0x00000000	0.0
241	0x00000000	0.0
242	0x00000000	0.0
243	0x00000000	0.0
244	0x00000000	0.0
245	0x00000000	0.0
246	0x00000000	0.0
247	0x00000000	0.0
248	0x00000000	0.0
249	0x00000000	0.0
250	0x00000000	0.0
251	0x00000000	0.0
252	0x00000000	0.0
253	0x00000000	0.0
254	0x00000000	0.0
255	0x00000000	0.0

weight_ih_l0_reverse f4 [300, 3]
0	0x3d885b1e	0.06658004
1	0xbba5d5aa	-0.005060871
2	0xbe18a667	-0.14907227
3	0x3bf7d71b	0.0075634844
4	0xbd50bb2b	-0.050959747
5	0x3d4c0f04	0.049819008
6	0xbd11b9cd	-0.035577584
7	0xbd6774a9	-0.05650774
8	0x3d72a915	0.05924328
9	0xbd85cdce	-0.06533395
10	0xbc5f4057	-0.01362618
11	0x3d3b6f56	0.045760475
12	0xbcd2ede8	-0.025748208
13	0xbd6960c4	-0.05697705
14	0x3cb2c644	0.021823056
15	0xbcf2dd31	-0.029646488
16	0xbcf4d27f	-0.029885529
17	0xbd296209	-0.04135326
18	0xbba49cc4	-0.0050235707
19	0x3e048064	0.12939602
20	0x3de0b9eb	0.10972961
21	0x3cd1272a	0.02553137
22	0x3e4abd1c	0.19798702
23	0xbdd1f84d	-0.10252438
24	0x3d02a830	0.031898677
25	0xbda3b5ab	-0.07993635
26	0x3d91e52a	0.07123788
27	0xbd8cde7c	-0.06878373
28	0xbd9b232f	-0.0757507
29	0x3d32058b	0.043462317
30	0x3e04902e	0.12945625
31	0x3df3f355	0.11911646
32	0x3e2f50ee	0.17120716
33	0xbcf4d5db	-0.02988713
34	0x3c51e938	0.012811951
35	0x3d562832	0.052284427
36	0xbd8b5e00	-0.068050385
37	0xbd8472a2	-0.06467177
38	0x3cc7c040	0.024383664
39	0x3cc41ed9	0.02394049
40	0xbd91d1a5	-0.07120065
41	0x3d3a4f88	0.045486003
42	0xbde4f513	-0.11179557
43	0x3e194709	0.14968504
44	0x3dac0059	0.08398504
45	0xbd4dea85	-0.050272483
46	0xbce82587	-0.028338207
47	0x3daaebb4	0.08345738
48	0xbcd9d0a3	-0.026588744
49	0xbc6b85d0	-0.014375165
50	0x3dd5dc73	0.10442438
51	0xbc465ce4	-0.012107108
52	0x3cb773cb	0.022394082
53	0x3e0b85d6	0.13625273
54	0x3dcc7313	0.09982886
55	0xbd100fd4	-0.035171345
56	0x3d752e4a	0.059858598
57	0x3b93dedb	0.0045126504
58	0xbd974a32	-0.073871985
59	0xbdc00bf2	-0.093772784
60	0x3c9e378c	0.019313596
61	0xbd9373f5	-0.071998514
62	0xbd809d33	-0.06279983
63	0x3e42e348	0.19032013
64	0xbcc48ad5	-0.023991982
65	0x3e14dc53	0.14537172
66	0xbd0c5180	-0.034257412
67	0xbcf70fce	-0.030158903
68	0x3ce7d41e	0.028299388
69	0xbcc5f3b7	-0.024164064
70	0x3d898d16	0.06716363
71	0x3c8fc956	0.01755206
72	0x3ddf938e	0.10916816
73	0x3d9dc33c	0.077032536
74	0x3c421bc4	0.01184744
75	0x3c85c4d4	0.016329207
76	0x3db1e0af	0.08685433
77	0x3def0700	0.11671257
78	0x3bc4ab8e	0.006001896
79	0x3dd3b4ed	0.10337243
80	0x3bc9320a	0.0061399983
81	0xbc1aebc5	-0.009455626
82	0xbd2cacb5	-0.042156894
83	0xbc53202a	-0.0128860865
84	0x3d46262b	0.048376244
85	0xbd2fbf09	-0.042906795
86	0x3c99efb4	0.018791057
87	0xbcea360c	-0.028590225
88	0xbd94f7b4	-0.07273808
89	0x3c429e45	0.011878555
90	0x3b9d8ca8	0.0048080273
91	0x3cad07f1	0.02112195
92	0xbd134236	-0.035951816
93	0xbd4ce668	-0.05002442
94	0x3d54f33b	0.051989775
95	0xbe42a738	-0.19009101
96	0x3d66c5b1	0.056340877
97	0xbd60a83a	-0.054847933
98	0xbe1b6f3f	-0.15179156
99	0x3e52cb17	0.20585285
100	0xbb47b731	-0.003047418
101	0x3e406c4f	0.18791316
102	0x3d575ca7	0.052578595
103	0x3c15bdc0	0.009139478
104	0x3c170071	0.009216414
105	0xbd909268	-0.07059175
106	0xbdf1ba40	-0.118031025
107	0x3e3cbfe3	0.18432574
108	0xbd9c5983	-0.076342605
109	0xbc8343cb	-0.016023537
110	0xbe076a59	-0.13224162
111	0xbe0a00d3	-0.13476877
112	0x3d3d2aae	0.04618328
113	0xbdc277d8	-0.09495515
114	0x3e34d260	0.17658377
115	0x3e15ce08	0.14629376
116	0x3c2d80e4	0.010589812
117	0xbd11a2dc	-0.035555705
118	0xbd882eae	-0.066495284
119	0xbd0a7ac6	-0.033808492
120	0xbc26a90a	-0.010172138
121	0x3de6cecc	0.11269912
122	0xbc443107	-0.01197458
123	0xbd49e374	-0.04928918
124	0xbe043a48	-0.12912858
125	0xbc20c5a8	-0.00981275
126	0xbd874816	-0.06605546
127	0xbcbcd378	-0.023050055
128	0x3dbc6a75	0.091999926
129	0xbce0243a	-0.027361024
130	0x3df4d7a5	0.119551934
131	0x3deeae24	0.116543084
132	0x3d76a5bd	0.060216654
133	0xbdb3c4fa	-0.08777805
134	0xbdda8d2d	-0.106714584
135	0xbded6522	-0.11591555
136	0x3c27b103	0.010235074
137	0xbe07cddd	-0.13262124
138	0xbc00ef75	-0.007869591
139	0xbcdc63c5	-0.026903043
140	0x3d28fbb8	0.041255683
141	0xbd994e9b	-0.07485696
142	0xbd3ebbd3	-0.046565842
143	0x3dbe48ac	0.09291205
144	0x3b7de893	0.0038743361
145	0x3db4b19e	0.0882294
146	0xbd30a36e	-0.04312461
147	0xbc77a1e1	-0.0151142785
148	0x3d9d9bee	0.07695757
149	0x3b11fd36	0.002227617
150	0x3c606cea	0.013697842
151	0x3e66b791	0.22530963
152	0xbbb154ea	-0.005411734
153	0xbd6b7e34	-0.057493404
154	0xbcd84535	-0.026400188
155	0xba8c0306	-0.0010682053
156	0xbc842de9	-0.016135173
157	0x3dfe00e9	0.12402517
158	0x3d49fec9	0.049315248
159	0x3b152720	0.0022758916
160	0xbd7a250a	-0.06107048
161	0xbd3f5fd1	-0.046722237
162	0xbd85e6d4	-0.065381676
163	0x3e185399	0.1487564
164	0xbcef40de	-0.029205736
165	0x3e2b8432	0.16749647
166	0xbc884308	-0.016633525
167	0xbe2a0f05	-0.16607292
168	0x3e43924d	0.19098778
169	0x3d74d195	0.059770186
170	0x3e33e503	0.1756783
171	0xbcddba70	-0.02706644
172	0x3db4e1b9	0.08832116
173	0x3cb13db5	0.02163587
174	0x3d3eec16	0.046611868
175	0xbd159ba7	-0.036525395
176	0xbcef006d	-0.029175008
177	0xbd243cd3	-0.04009707
178	0xbc6df6c7	-0.014524168
179	0xbd1bd7b9	-0.038047526
180	0xbd96c600	-0.07361984
181	0xbda58351	-0.08081687
182	0x3c603ce5	0.013686393
183	0xbddfdf96	-0.109313175
184	0x3dfb3ced	0.1226748
185	0xbd6ff489	-0.058582816
186	0x3e079dfb	0.13243859
187	0xbe060e25	-0.13091333
188	0x3dac88ae	0.08424507
189	0x3d6ddd4d	0.058072377
190	0xb9806daf	-0.00024495783
191	0x3d4c8161	0.049928073
192	0x3cc4d47f	0.024027107
193	0xbdcae427	-0.09906798
194	0x3d4783e6	0.048709773
195	0x3ddc75f8	0.10764688
196	0x3e680391	0.2265761
197	0xbdecd705	-0.11564449
198	0xbc9315f4	-0.017954804
199	0xbc8b5f7f	-0.01701331
200	0xbe3b4bb7	-0.18290602
201	0xbd885a64	-0.06657866
202	0xbe1a785f	-0.1508498
203	0x3c94b977	0.018154843
204	0x3c653945	0.013990705
205	0x3c34c185	0.011032467
206	0xbdd20f48	-0.10256821
207	0x3c63b857	0.0138989305
208	0xbca79766	-0.020457935
209	0x3bcc630c	0.0062373932
210	0xbdb177dc	-0.086654395
211	0xbe1fbae3	-0.15598635
212	0x3da6ccb4	0.08144513
213	0x3e8d9cc4	0.27658665
214	0x3d17b3f5	0.037036855
215	0xbd35d922	-0.044396527
216	0xbe2436fb	-0.16036598
217	0x3d2a8ae7	0.041636374
218	0xbe2c2ce5	-0.16814001
219	0x3e17eb1f	0.14835785
220	0x3d1ac300	0.037783623
221	0xbd6db4e3	-0.058033835
222	0x3cd1b34f	0.025598196
223	0xbdb7b319	-0.08969707
224	0x3cc26688	0.023730531
225	0xbd875d91	-0.06609643
226	0x3e206506	0.15663537
227	0x3cd2dba5	0.0257395
228	0xbc9e7ec4	-0.019347556
229	0x3d7d716b	0.061875742
230	0x3d709274	0.05873342
231	0xbe441ca9	-0.19151558
232	0x3db96bfa	0.09053798
233	0x3d1ed454	0.03877671
234	0x3da52cf8	0.08065218
235	0xbd4e0d9b	-0.050305944
236	0xbdec5e7c	-0.11541459
237	0xbe63d27e	-0.22248265
238	0xbd4e19bd	-0.050317515
239	0x3ca31964	0.019909568
240	0xbe349a7d	-0.17637058
241	0x3d8aea11	0.06782926
242	0x3d6c4ea8	0.0576922
243	0xbd9f831d	-0.0778868
244	0x3c7df0c4	0.0154992975
245	0x3b6debd2	0.003630389
246	0xbe476783	-0.1947308
247	0x3cb8fa2f	0.022580234
248	0x3db53688	0.08848292
249	0xbc4bacaa	-0.012431303
250	0xbd2cc12a	-0.042176403
251	0x3e3b5898	0.18295515
252	0xbda31eb4	-0.079648405
253	0x3c2f0a50	0.010683611
254	0x3dc6df52	0.09710564
255	0xbd4fa367	-0.050692942

weight_hh_l0_reverse f4 [300, 100]
0	0xbb71ba00	-0.0036884546
1	0xbbd9cbf8	-0.0066466294
2	0x3cf817d4	0.0302848
3	0x3de3016b	0.11084255
4	0xbd8043db	-0.062629424
5	0xbd851f9a	-0.06500168
6	0x3ca76526	0.020433974
7	0x3d815276	0.06314556
8	0xbd496515	-0.049168665
9	0x3ccd9150	0.025093704
10	0x3ccc4054	0.024933018
11	0xbd3a6a44	-0.0455115
12	0x3ca76ef8	0.020438656
13	0x3db29aaa	0.08720906
14	0x3ddc6c30	0.10762823
15	0xbd15691c	-0.036477193
16	0xbd7209f2	-0.059091516
17	0x3b1aa9c6	0.0023599728
18	0xbd71b95d	-0.059014667
19	0x3ca96a9b	0.020680716
20	0x3d595042	0.053055055
21	0x3c6c4ed8	0.014423095
22	0xbcd04244	-0.025422223
23	0xbce6ee2e	-0.028189745
24	0xbd1e5d6e	-0.03866332
25	0x3d3be43c	0.045871958
26	0x3cd14834	0.025547124
27	0x3da89706	0.082319304
28	0x3d301d4c	0.04299669
29	0xbb8ead30	-0.0043541417
30	0x3d25f39a	0.04051552
31	0x3cd74eb8	0.026282653
32	0xbd07159c	-0.032979593
33	0xbdbadbf9	-0.09123988
34	0x3db008eb	0.08595451
35	0xbd75eac9	-0.06003836
36	0x3d7c1ebc	0.061552748
37	0xbbc4ebaa	-0.0060095387
38	0x3e0d00a9	0.13769783
39	0xbdd9fbba	-0.10643716
40	0xbc85fa32	-0.016354654
41	0xbd627e4c	-0.055296227
42	0x3c9248f4	0.017857052
43	0xbba93be3	-0.0051646098
44	0x3ccfabab	0.025350412
45	0x3e068813	0.13137846
46	0x3dce5b02	0.10075952
47	0x3dca1a53	0.09868302
48	0x3dec6dda	0.1154439
49	0x3d4f66a1	0.050634984
50	0x3ce73a31	0.02822599
51	0xbc937437	-0.017999751
52	0xbb1ec729	-0.0024227595
53	0xbd78db3b	-0.06075595
54	0xbd04a83a	-0.032386996
55	0x3dd3c3c8	0.10340077
56	0xbd003f61	-0.031310443
57	0x3ba8c53b	0.005150465
58	0xbd122b06	-0.03568556
59	0x3ccf17f6	0.02527998
60	0x3cf81d53	0.03028742
61	0x3d3fa681	0.04678965
62	0x3d1f4b29	0.038890038
63	0x3d588933	0.05286522
64	0x3dbfe472	0.09369744
65	0x3aae21a5	0.0013285173
66	0xbd2de845	-0.042457838
67	0x3c84b4ba	0.016199458
68	0xbd0c8eb1	-0.03431577
69	0xbc3243b8	-0.010880403
70	0xbd91ddc6	-0.07122378
71	0x3cdef21a	0.027215052
72	0xbbb1e771	-0.0054292013
73	0xbdb029fe	-0.086017594
74	0x3cb27198	0.021782681
75	0x3de0a26c	0.109684795
76	0x3d9bcf59	0.07607908
77	0x3d2a21f5	0.04153629
78	0xbd5f6199	-0.054536436
79	0xbdf029a6	-0.11726694
80	0xbb66b96a	-0.003520573
81	0xbb3c5ecd	-0.002874303
82	0xbd1b7e34	-0.037962154
83	0xbb0006e5	-0.001953536
84	0xbd876cb5	-0.06612531
85	0xbd063bed	-0.032771993
86	0xbd7d2975	-0.061807115
87	0x3bc63faf	0.006050072
88	0xbc9dc220	-0.019257605
89	0x3cdc76c5	0.026912102
90	0xbc75d24a	-0.01500375
91	0x3dc070e2	0.09396531
92	0x3d012740	0.031531572
93	0x3e032a79	0.12809171
94	0xbc89566c	-0.016764842
95	0x3d98b865	0.074570455
96	0x3ce094c2	0.027414683
97	0xbd46805a	-0.04846225
98	0x3caa5c17	0.020795865
99	0x3c476fe5	0.012172674
100	0x3d43b12e	0.047776394
101	0x3dbb49e0	0.0914495
102	0xbd5a41b0	-0.0532853
103	0x3deb9297	0.11502569
104	0xbd903426	-0.070411965
105	0x3e297b2a	0.1655089
106	0xbd958384	-0.07300475
107	0x3d0a3b21	0.033747796
108	0x3dd583fa	0.10425563
109	0xbb05c290	-0.0020410158
110	0xbc1a7547	-0.009427375
111	0x3cc1a4af	0.023638098
112	0x3d080669	0.03320924
113	0x3cf46c09	0.029836671
114	0xbd6327a8	-0.05545774
115	0xbc4616c8	-0.012090392
116	0x3dba1eb4	0.090878874
117	0x3d824efd	0.06362722
118	0x3d658b8b	0.05604128
119	0xbd011373	-0.03151269
120	0xbc13aeb4	-0.00901382
121	0x3d8a1973	0.06743135
122	0xbdb1d3c3	-0.086829685
123	0xbbe33c24	-0.0069346596
124	0x3cef238a	0.029191751
125	0xbc5e6ea9	-0.013576188
126	0xbd5f5a3f	-0.054529425
127	0x3dbe1f08	0.092832625
128	0x3e0c090f	0.1367533
129	0xbd295e52	-0.041349716
130	0xbcfe53ba	-0.031045783
131	0xbc450d7c	-0.012027141
132	0x3ce925c9	0.0284604
133	0xbc4e73e0	-0.012600869
134	0x3c9e7ac1	0.019345643
135	0xbdf20303	-0.11816981
136	0x3c6a3682	0.014295222
137	0x3a3c79fe	0.0007189809
138	0x3d1354de	0.035969608
139	0x3d400f13	0.046889376
140	0x3d3495ce	0.044088177
141	0x3dfef459	0.12448949
142	0xbb91ce7b	-0.004449663
143	0xbd3f46b0	-0.046698272
144	0x3d31495d	0.043282855
145	0x3b127942	0.0022350107
146	0x3d25a1d7	0.040437546
147	0xbdac7251	-0.084202416
148	0xbcd46182	-0.025925402
149	0x3cffdeaa	0.031234104
150	0x3d6a7329	0.05723873
151	0x3caec810	0.021335632
152	0xbd2bebfd	-0.041973103
153	0xbd9a7ac1	-0.07542945
154	0x3cd9a188	0.026566282
155	0x3d91f5f8	0.07126993
156	0x3912d138	0.00014001585
157	0x3d8167db	0.06318637
158	0x3d8a1420	0.0674212
159	0x3d5f5fea	0.05453483
160	0xbd253cc4	-0.040341154
161	0xbd251e98	-0.04031238
162	0x3c0d626f	0.008629425
163	0xbc168f09	-0.009189376
164	0x3d60fddc	0.0549296
165	0xbccdbc3e	-0.025114175
166	0x3d578713	0.05261905
167	0x3d5ef2f6	0.054430924
168	0xbd39c37d	-0.045352448
169	0x3ced786f	0.028988091
170	0x3e1bcd07	0.1521493
171	0xbd8fd5c7	-0.07023197
172	0xbcdfb0df	-0.027306018
173	0x3dbeda55	0.09318987
174	0xbdae48ea	-0.08510001
175	0x3d0f0c9f	0.034924146
176	0x3bd0a2c8	0.0063670613
177	0xbc5df43e	-0.013547001
178	0xbb4f5a8d	-0.0031639666
179	0xbbc2a3f3	-0.0059399544
180	0xbd81e773	-0.063429736
181	0xbd3a78e4	-0.045525447
182	0xbdc9650a	-0.09833725
183	0x3d1c05f8	0.03809163
184	0x3d0911c9	0.033464227
185	0xbc9050fd	-0.017616743
186	0x3d2e93bb	0.042621356
187	0x3ccfd0ae	0.02536806
188	0xbd570155	-0.052491505
189	0x3d21e8d8	0.039528698
190	0xbcf75ad5	-0.03019468
191	0x3cd2c1c2	0.025727157
192	0xbdcc047f	-0.09961795
193	0xbb06d022	-0.0020570834
194	0x3d94ac2d	0.072594024
195	0x3de9caf5	0.11415664
196	0xbd0cece7	-0.034405615
197	0x3d14700e	0.036239676
198	0x3d358e50	0.044325173
199	0xbd4071c2	-0.046983488
200	0x3d92a3db	0.07160159
201	0xbca2ec66	-0.019888114
202	0x3cc5a2c0	0.024125457
203	0xbcc3ad03	-0.02388621
204	0xbdb7c370	-0.089728236
205	0x3d4869b0	0.048928916
206	0xbd7593f4	-0.059955552
207	0x3dbe9473	0.09305658
208	0x3cb96d77	0.022635205
209	0x3d943612	0.072368756
210	0xbd5fcf97	-0.054641332
211	0x3cf27b96	0.029599946
212	0xbc8cf286	-0.017205488
213	0xbc6a1aae	-0.0142885875
214	0x3d462c2e	0.048381977
215	0xbd870e37	-0.06594508
216	0xbbbc8e20	-0.0057542473
217	0xbce3af30	-0.027793497
218	0xbdb9a785	-0.09065155
219	0x3ceb2f67	0.028709127
220	0xbcd5559a	-0.026041795
221	0xbce2371e	-0.027614173
222	0x3d031596	0.032003008
223	0xbcdc2e92	-0.026877675
224	0x3d32ac5b	0.043621402
225	0xbd169ac1	-0.03676868
226	0xbd064ada	-0.032786228
227	0xbcb06572	-0.021532748
228	0x3bebde9a	0.007198167
229	0x3d2a3e51	0.041563336
230	0x3c8c3b86	0.017118227
231	0xbd2ddb09	-0.042445216
232	0x3daf844f	0.08570158
233	0xbd3c6d7a	-0.046002842
234	0x3d630768	0.055426985
235	0x3cd01430	0.025400251
236	0xbd6d7df6	-0.057981454
237	0xbd081095	-0.03321894
238	0x3aa28f50	0.001240233
239	0x3ce35e82	0.027755026
240	0x3bdcfa80	0.006743729
241	0xbd8aec28	-0.067833245
242	0x3d7e6d24	0.062115803
243	0x3cd8710e	0.026421096
244	0xbd0fdd06	-0.035122894
245	0x3d3f1f84	0.046660915
246	0xbc0cbefb	-0.008590455
247	0xbd1b2fe2	-0.03788746
248	0x3c24925f	0.010044663
249	0x3d7f587c	0.062340245
250	0xbd270598	-0.04077682
251	0xbd23f2f1	-0.04002661
252	0x3e2e2c54	0.17009097
253	0x3c6065dd	0.013696161
254	0x3bedb9e4	0.007254826
255	0x3d11d844	0.035606638

bias_ih_l0_reverse f4 [300]
0	0x00000000	0.0
1	0x00000000	0.0
2	0x00000000	0.0
3	0x00000000	0.0
4	0x00000000	0.0
5	0x00000000	0.0
6	0x00000000	0.0
7	0x00000000	0.0
8	0x00000000	0.0
9	0x00000000	0.0
10	0x00000000	0.0
11	0x00000000	0.0
12	0x00000000	0.0
13	0x00000000	0.0
14	0x00000000	0.0
15	0x00000000	0.0
16	0x00000000	0.0
17	0x00000000	0.0
18	0x00000000	0.0
19	0x00000000	0.0
20	0x00000000	0.0
21	0x00000000	0.0
22	0x00000000	0.0
23	0x00000000	0.0
24	0x00000000	0.0
25	0x00000000	0.0
26	0x00000000	0.0
27	0x00000000	0.0
28	0x00000000	0.0
29	0x00000000	0.0
30	0x00000000	0.0
31	0x00000000	0.0
32	0x00000000	0.0
33	0x00000000	0.0
34	0x00000000	0.0
35	0x00000000	0.0
36	0x00000000	0.0
37	0x00000000	0.0
38	0x00000000	0.0
39	0x00000000	0.0
40	0x00000000	0.0
41	0x00000000	0.0
42	0x00000000	0.0
43	0x00000000	0.0
44	0x00000000	0.0
45	0x00000000	0.0
46	0x00000000	0.0
47	0x00000000	0.0
48	0x00000000	0.0
49	0x00000000	0.0
50	0x00000000	0.0
51	0x00000000	0.0
52	0x00000000	0.0
53	0x00000000	0.0
54	0x00000000	0.0
55	0x00000000	0.0
56	0x00000000	0.0
57	0x00000000	0.0
58	0x00000000	0.0
59	0x00000000	0.0
60	0x00000000	0.0
61	0x00000000	0.0
62	0x00000000	0.0
63	0x00000000	0.0
64	0x00000000	0.0
65	0x00000000	0.0
66	0x00000000	0.0
67	0x00000000	0.0
68	0x00000000	0.0
69	0x00000000	0.0
70	0x00000000	0.0
71	0x00000000	0.0
72	0x00000000	0.0
73	0x00000000	0.0
74	0x00000000	0.0
75	0x3f800000	1.0
76	0x3f800000	1.0
77	0x3f800000	1.0
78	0x3f800000	1.0
79	0x3f800000	1.0
80	0x3f800000	1.0
81	0x3f800000	1.0
82	0x3f800000	1.0
83	0x3f800000	1.0
84	0x3f800000	1.0
85	0x3f800000	1.0
86	0x3f800000	1.0
87	0x3f800000	1.0
88	0x3f800000	1.0
89	0x3f800000	1.0
90	0x3f800000	1.0
91	0x3f800000	1.0
92	0x3f800000	1.0
93	0x3f800000	1.0
94	0x3f800000	1.0
95	0x3f800000	1.0
96	0x3f800000	1.0
97	0x3f800000	1.0
98	0x3f800000	1.0
99	0x3f800000	1.0
100	0x3f800000	1.0
101	0x3f800000	1.0
102	0x3f800000	1.0
103	0x3f800000	1.0
104	0x3f800000	1.0
105	0x3f800000	1.0
106	0x3f800000	1.0
107	0x3f800000	1.0
108	0x3f800000	1.0
109	0x3f800000	1.0
110	0x3f800000	1.0
111	0x3f800000	1.0
112	0x3f800000	1.0
113	0x3f800000	1.0
114	0x3f800000	1.0
115	0x3f800000	1.0
116	0x3f800000	1.0
117	0x3f800000	1.0
118	0x3f800000	1.0
119	0x3f800000	1.0
120	0x3f800000	1.0
121	0x3f800000	1.0
122	0x3f800000	1.0
123	0x3f800000	1.0
124	0x3f800000	1.0
125	0x3f800000	1.0
126	0x3f800000	1.0
127	0x3f800000	1.0
128	0x3f800000	1.0
129	0x3f800000	1.0
130	0x3f800000	1.0
131	0x3f800000	1.0
132	0x3f800000	1.0
133	0x3f800000	1.0
134	0x3f800000	1.0
135	0x3f800000	1.0
136	0x3f800000	1.0
137	0x3f800000	1.0
138	0x3f800000	1.0
139	0x3f800000	1.0
140	0x3f800000	1.0
141	0x3f800000	1.0
142	0x3f800000	1.0
143	0x3f800000	1.0
144	0x3f800000	1.0
145	0x3f800000	1.0
146	0x3f800000	1.0
147	0x3f800000	1.0
148	0x3f800000	1.0
149	0x3f800000	1.0
150	0x00000000	0.0
151	0x00000000	0.0
152	0x00000000	0.0
153	0x00000000	0.0
154	0x00000000	0.0
155	0x00000000	0.0
156	0x00000000	0.0
157	0x00000000	0.0
158	0x00000000	0.0
159	0x00000000	0.0
160	0x00000000	0.0
161	0x00000000	0.0
162	0x00000000	0.0
163	0x00000000	0.0
164	0x00000000	0.0
165	0x00000000	0.0
166	0x00000000	0.0
167	0x00000000	0.0
168	0x00000000	0.0
169	0x00000000	0.0
170	0x00000000	0.0
171	0x00000000	0.0
172	0x00000000	0.0
173	0x00000000	0.0
174	0x00000000	0.0
175	0x00000000	0.0
176	0x00000000	0.0
177	0x00000000	0.0
178	0x00000000	0.0
179	0x00000000	0.0
180	0x00000000	0.0
181	0x00000000	0.0
182	0x00000000	0.0
183	0x00000000	0.0
184	0x00000000	0.0
185	0x00000000	0.0
186	0x00000000	0.0
187	0x00000000	0.0
188	0x00000000	0.0
189	0x00000000	0.0
190	0x00000000	0.0
191	0x00000000	0.0
192	0x00000000	0.0
193	0x00000000	0.0
194	0x00000000	0.0
195	0x00000000	0.0
196	0x00000000	0.0
197	0x00000000	0.0
198	0x00000000	0.0
199	0x00000000	0.0
200	0x00000000	0.0
201	0x00000000	0.0
202	0x00000000	0.0
203	0x00000000	0.0
204	0x00000000	0.0
205	0x00000000	0.0
206	0x00000000	0.0
207	0x00000000	0.0
208	0x00000000	0.0
209	0x00000000	0.0
210	0x00000000	0.0
211	0x00000000	0.0
212	0x00000000	0.0
213	0x00000000	0.0
214	0x00000000	0.0
215	0x00000000	0.0
216	0x00000000	0.0
217	0x00000000	0.0
218	0x00000000	0.0
219	0x00000000	0.0
220	0x00000000	0.0
221	0x00000000	0.0
222	0x00000000	0.0
223	0x00000000	0.0
224	0x00000000	0.0
225	0x00000000	0.0
226	0x00000000	0.0
227	0x00000000	0.0
228	0x00000000	0.0
229	0x00000000	0.0
230	0x00000000	0.0
231	0x00000000	0.0
232	0x00000000	0.0
233	0x00000000	0.0
234	0x00000000	0.0
235	0x00000000	0.0
236	0x00000000	0.0
237	0x00000000	0.0
238	0x00000000	0.0
239	0x00000000	0.0
240	0x00000000	0.0
241	0x00000000	0.0
242	0x00000000	0.0
243	0x00000000	0.0
244	0x00000000	0.0
245	0x00000000	0.0
246	0x00000000	0.0
247	0x00000000	0.0
248	0x00000000	0.0
249	0x00000000	0.0
250	0x00000000	0.0
251	0x00000000	0.0
252	0x00000000	0.0
253	0x00000000	0.0
254	0x00000000	0.0
255	0x00000000	0.0

bias_hh_l0_reverse f4 [300]
0	0x00000000	0.0
1	0x00000000	0.0
2	0x00000000	0.0
3	0x00000000	0.0
4	0x00000000	0.0
5	0x00000000	0.0
6	0x00000000	0.0
7	0x00000000	0.0
8	0x00000000	0.0
9	0x00000000	0.0
10	0x00000000	0.0
11	0x00000000	0.0
12	0x00000000	0.0
13	0x00000000	0.0
14	0x00000000	0.0
15	0x00000000	0.0
16	0x00000000	0.0
17	0x00000000	0.0
18	0x00000000	0.0
19	0x00000000	0.0
20	0x00000000	0.0
21	0x00000000	0.0
22	0x00000000	0.0
23	0x00000000	0.0
24	0x00000000	0.0
25	0x00000000	0.0
26	0x00000000	0.0
27	0x00000000	0.0
28	0x00000000	0.0
29	0x00000000	0.0
30	0x00000000	0.0
31	0x00000000	0.0
32	0x00000000	0.0
33	0x00000000	0.0
34	0x00000000	0.0
35	0x00000000	0.0
36	0x00000000	0.0
37	0x00000000	0.0
38	0x00000000	0.0
39	0x00000000	0.0
40	0x00000000	0.0
41	0x00000000	0.0
42	0x00000000	0.0
43	0x00000000	0.0
44	0x00000000	0.0
45	0x00000000	0.0
46	0x00000000	0.0
47	0x00000000	0.0
48	0x00000000	0.0
49	0x00000000	0.0
50	0x00000000	0.0
51	0x00000000	0.0
52	0x00000000	0.0
53	0x00000000	0.0
54	0x00000000	0.0
55	0x00000000	0.0
56	0x00000000	0.0
57	0x00000000	0.0
58	0x00000000	0.0
59	0x00000000	0.0
60	0x00000000	0.0
61	0x00000000	0.0
62	0x00000000	0.0
63	0x00000000	0.0
64	0x00000000	0.0
65	0x00000000	0.0
66	0x00000000	0.0
67	0x00000000	0.0
68	0x00000000	0.0
69	0x00000000	0.0
70	0x00000000	0.0
71	0x00000000	0.0
72	0x00000000	0.0
73	0x00000000	0.0
74	0x00000000	0.0
75	0x00000000	0.0
76	0x00000000	0.0
77	0x00000000	0.0
78	0x00000000	0.0
79	0x00000000	0.0
80	0x00000000	0.0
81	0x00000000	0.0
82	0x00000000	0.0
83	0x00000000	0.0
84	0x00000000	0.0
85	0x00000000	0.0
86	0x00000000	0.0
87	0x00000000	0.0
88	0x00000000	0.0
89	0x00000000	0.0
90	0x00000000	0.0
91	0x00000000	0.0
92	0x00000000	0.0
93	0x00000000	0.0
94	0x00000000	0.0
95	0x00000000	0.0
96	0x00000000	0.0
97	0x00000000	0.0
98	0x00000000	0.0
99	0x00000000	0.0
100	0x00000000	0.0
101	0x00000000	0.0
102	0x00000000	0.0
103	0x00000000	0.0
104	0x00000000	0.0
105	0x00000000	0.0
106	0x00000000	0.0
107	0x00000000	0.0
108	0x00000000	0.0
109	0x00000000	0.0
110	0x00000000	0.0
111	0x00000000	0.0
112	0x00000000	0.0
113	0x00000000	0.0
114	0x00000000	0.0
115	0x00000000	0.0
116	0x00000000	0.0
117	0x00000000	0.0
118	0x00000000	0.0
119	0x00000000	0.0
120	0x00000000	0.0
121	0x00000000	0.0
122	0x00000000	0.0
123	0x00000000	0.0
124	0x00000000	0.0
125	0x00000000	0.0
126	0x00000000	0.0
127	0x00000000	0.0
128	0x00000000	0.0
129	0x00000000	0.0
130	0x00000000	0.0
131	0x00000000	0.0
132	0x00000000	0.0
133	0x00000000	0.0
134	0x00000000	0.0
135	0x00000000	0.0
136	0x00000000	0.0
137	0x00000000	0.0
138	0x00000000	0.0
139	0x00000000	0.0
140	0x00000000	0.0
141	0x00000000	0.0
142	0x00000000	0.0
143	0x00000000	0.0
144	0x00000000	0.0
145	0x00000000	0.0
146	0x00000000	0.0
147	0x00000000	0.0
148	0x00000000	0.0
149	0x00000000	0.0
150	0x00000000	0.0
151	0x00000000	0.0
152	0x00000000	0.0
153	0x00000000	0.0
154	0x00000000	0.0
155	0x00000000	0.0
156	0x00000000	0.0
157	0x00000000	0.0
158	0x00000000	0.0
159	0x00000000	0.0
160	0x00000000	0.0
161	0x00000000	0.0
162	0x00000000	0.0
163	0x00000000	0.0
164	0x00000000	0.0
165	0x00000000	0.0
166	0x00000000	0.0
167	0x00000000	0.0
168	0x00000000	0.0
169	0x00000000	0.0
170	0x00000000	0.0
171	0x00000000	0.0
172	0x00000000	0.0
173	0x00000000	0.0
174	0x00000000	0.0
175	0x00000000	0.0
176	0x00000000	0.0
177	0x00000000	0.0
178	0x00000000	0.0
179	0x00000000	0.0
180	0x00000000	0.0
181	0x00000000	0.0
182	0x00000000	0.0
183	0x00000000	0.0
184	0x00000000	0.0
185	0x00000000	0.0
186	0x00000000	0.0
187	0x00000000	0.0
188	0x00000000	0.0
189	0x00000000	0.0
190	0x00000000	0.0
191	0x00000000	0.0
192	0x00000000	0.0
193	0x00000000	0.0
194	0x00000000	0.0
195	0x00000000	0.0
196	0x00000000	0.0
197	0x00000000	0.0
198	0x00000000	0.0
199	0x00000000	0.0
200	0x00000000	0.0
201	0x00000000	0.0
202	0x00000000	0.0
203	0x00000000	0.0
204	0x00000000	0.0
205	0x00000000	0.0
206	0x00000000	0.0
207	0x00000000	0.0
208	0x00000000	0.0
209	0x00000000	0.0
210	0x00000000	0.0
211	0x00000000	0.0
212	0x00000000	0.0
213	0x00000000	0.0
214	0x00000000	0.0
215	0x00000000	0.0
216	0x00000000	0.0
217	0x00000000	0.0
218	0x00000000	0.0
219	0x00000000	0.0
220	0x00000000	0.0
221	0x00000000	0.0
222	0x00000000	0.0
223	0x00000000	0.0
224	0x00000000	0.0
225	0x00000000	0.0
226	0x00000000	0.0
227	0x00000000	0.0
228	0x00000000	0.0
229	0x00000000	0.0
230	0x00000000	0.0
231	0x00000000	0.0
232	0x00000000	0.0
233	0x00000000	0.0
234	0x00000000	0.0
235	0x00000000	0.0
236	0x00000000	0.0
237	0x00000000	0.0
238	0x00000000	0.0
239	0x00000000	0.0
240	0x00000000	0.0
241	0x00000000	0.0
242	0x00000000	0.0
243	0x00000000	0.0
244	0x00000000	0.0
245	0x00000000	0.0
246	0x00000000	0.0
247	0x00000000	0.0
248	0x00000000	0.0
249	0x00000000	0.0
250	0x00000000	0.0
251	0x00000000	0.0
252	0x00000000	0.0
253	0x00000000	0.0
254	0x00000000	0.0
255	0x00000000	0.0
